improved_gating_cnn.pth (torch, 409940 bytes, 26 tensors)

features.0.weight f4 [32, 3, 3, 3]
000000 23 db 2c 3e 8f 0f 0e 3e 1b 4e 80 3d bc 42 2e 3e
       0.16880469 0.13873123 0.062648974 0.17017645
000010 ae e8 2c 3b c5 e7 e3 bc 37 64 c9 bd 9b d1 35 be
       0.0026383805 -0.027820477 -0.098335676 -0.1775574
000020 02 79 a0 3c 90 6f 15 3e 18 c0 90 3d 27 66 e6 3d
       0.019588951 0.14593339 0.07067889 0.11249953
000030 9e 8d 59 3d 16 00 2f 3e d0 ec 4b be 39 64 d6 bd
       0.053113572 0.17089877 -0.19914556 -0.10468335
000040 72 ea 78 bd 9e 4a 7d bd b2 36 b9 bc f5 49 91 bd
       -0.06077046 -0.06183874 -0.022609089 -0.07094184
000050 8f c3 03 bc 25 9d 91 bb 31 08 01 3e 4b b5 cf 3c
       -0.00804223 -0.004443782 0.12600781 0.025355002
000060 0f 09 af 3c 96 5d 0b be 92 86 02 be f4 fd 12 be
       0.021366624 -0.13609919 -0.12746647 -0.14354688
000070 3a b0 21 be 23 a7 43 3e 44 a0 a2 3d 35 ff 3c bd
       -0.15789881 0.19106726 0.079407245 -0.046141822
000080 7d 2e d4 bd a1 5f ba bc 88 b0 32 3e 90 50 05 3e
       -0.103604294 -0.022750678 0.17450154 0.13019013
000090 dc e8 49 be 03 35 c2 3b 19 52 05 be 69 ae 2e 3d
       -0.19717735 0.0059267296 -0.13019599 0.0426468
0000a0 e8 ed 4c be cb 43 4f 3d 18 b6 75 bd 5a c5 aa bd
       -0.20012629 0.05060176 -0.05998811 -0.08338423
0000b0 9c c8 8b bd c3 c0 31 3e d6 1b 6e 3e 24 39 e1 3d
       -0.068253726 0.17358689 0.23252806 0.10997227
0000c0 08 7b 0d be 50 93 91 3c a6 bf 02 be 3f 5b 13 3e
       -0.13816464 0.01777044 -0.1276842 0.14390276
0000d0 b2 75 2a 3c 5e 16 25 3d 86 93 65 3e 80 64 b0 bc
       0.010404037 0.040304534 0.22419557 -0.021532297
0000e0 15 cc 5a 3d 13 ae 12 3c 2c 61 6f 3e 57 b5 85 3e
       0.053417284 0.008952635 0.23376912 0.26114914
0000f0 a8 e0 d6 3d 0d 5f 68 3e 25 2f 72 bd ac 43 54 be
       0.104920685 0.22692509 -0.05912699 -0.2072894
000100 e7 9f 8b 3d 87 f4 03 be 73 ea 4f 3d 31 70 c7 3c
       0.06817608 -0.12886249 0.050760698 0.02434549
000110 92 ed dd bc 45 5a 4c 3d 8d e4 7e bd 90 65 b3 bd
       -0.027090821 0.049890775 -0.06222968 -0.08759606
000120 92 49 cf bc fa 06 c4 bd 10 92 ac 3d 53 84 9f 3d
       -0.025303636 -0.09571643 0.08426297 0.07788911
000130 82 ec 3f bd c6 92 2a 3d 16 a9 09 be c9 e3 e8 bd
       -0.04685641 0.04164388 -0.13443407 -0.113715716
000140 99 9d da 3d f3 6f f9 3b 05 21 3b bd 09 96 94 3d
       0.106745906 0.0076122223 -0.045685787 0.072551794
000150 3d dc 21 3e 18 5c 59 3c 0a 97 50 be 05 cb 12 3e
       0.1580667 0.013266586 -0.20370117 0.14335258
000160 10 55 16 be 5b e2 ea 3d 65 1f 2c bd 95 b9 84 3e
       -0.14680886 0.11468955 -0.042022128 0.25922838
000170 3d 57 20 3e b7 ae 31 3e 1d 16 03 be 16 66 30 be
       0.15658279 0.17351805 -0.12801404 -0.17226443
000180 dc f8 2d be bb c3 d5 3d 64 53 26 bc ba 7f 03 be
       -0.16989464 0.10437723 -0.010151718 -0.12841693
000190 3b 86 12 3e 43 de c6 bd 39 51 95 bc db 8d b6 bc
       0.14309017 -0.09710362 -0.018227207 -0.022284439
0001a0 0b 72 ab 3d ca 5c 42 bd e3 42 51 be 3a 28 f4 bd
       0.08371361 -0.04745177 -0.20435672 -0.11921735
0001b0 86 e1 09 be 6a e0 ac 3d 3b 2a 7d bd 80 8b e3 3d
       -0.13464937 0.08441241 -0.061807852 0.11110592
0001c0 27 41 38 3e 88 d2 db 3d f0 7e 35 3d 70 c5 42 3e
       0.17993604 0.10733515 0.04431051 0.19020629
0001d0 7c 20 c0 bd 36 d3 e9 3d 55 94 03 be 4f 48 37 bc
       -0.09381196 0.114172384 -0.12849553 -0.011186673
0001e0 64 b8 42 be ee 3b 2a be 60 0c 7c bd 23 fe 25 be
       -0.19015652 -0.16624424 -0.06153524 -0.16210227
0001f0 c4 70 ba 3d 80 1d 5c be 0f 57 4b bc 2e a6 e4 3d
       0.091035396 -0.21495628 -0.012410893 0.11164509
000200 26 12 2d bd fc 9e 09 be 97 89 64 3b 13 07 3e 3e
       -0.042253636 -0.13439554 0.003487205 0.18557386
000210 db 33 0e be a1 9e 32 3e e7 3d 9f 3d 9e 6e 51 be
       -0.13886969 0.17443325 0.07775479 -0.20452353
000220 78 93 42 be 41 2a 32 be 1e 35 2a 3e bb 80 31 bd
       -0.19001567 -0.17398931 0.16621825 -0.043335658
000230 93 d9 f9 3d 74 86 44 be 47 58 a1 bd cf d7 99 bd
       0.12199702 -0.19191915 -0.07878166 -0.07511865
000240 e2 ec 37 be a8 a0 79 3d 19 6e 06 bd 7c ed 77 3d
       -0.17961457 0.06094423 -0.03281984 0.060529217
000250 56 e3 69 39 cf b0 2d 3e 31 bc d6 3d e9 ad bb 3d
       0.00022305301 0.16961978 0.104851134 0.0916403
000260 f6 6a e1 3d a1 1c 15 3c 60 76 8d bc d9 cb 23 3e
       0.11006729 0.009101064 -0.01726836 0.1599573
000270 0e 38 14 be fa fe 19 bc b3 86 9a 3d 62 66 18 be
       -0.14474508 -0.00939917 0.07545223 -0.14882806
000280 3b d2 0e 3e 4b cb df 3d b9 c3 05 3e a8 72 8f 3c
       0.13947384 0.10927447 0.13062944 0.017510727
000290 62 79 88 bd 09 31 52 bd 55 de 31 be 66 d9 08 be
       -0.06663777 -0.051316295 -0.17369969 -0.13364181
0002a0 7d 35 34 3e 2c df 03 3e 08 71 7b 3d c1 8f 3d bd
       0.17598529 0.12878102 0.061387092 -0.046279673
0002b0 2f b6 37 bd c1 64 c1 bd 8e e8 86 3d f6 4a 16 bd
       -0.04485148 -0.094430454 0.06587325 -0.036692582
0002c0 0e 56 3d bd c8 9f d1 bc 7a 86 33 be 73 e0 47 be
       -0.046224646 -0.025588885 -0.17531767 -0.19519214
0002d0 3b f3 e1 bd 4e c1 b6 3d ff 55 3e 3e 0a 71 db 3d
       -0.11032721 0.08923589 0.18587492 0.1071492
0002e0 6d d0 25 3e e8 95 be 3d 88 a7 bd bd 02 fc 15 3e
       0.1619279 0.09305936 -0.0926047 0.14646915
0002f0 76 57 15 3d c2 c2 0b bd 97 79 2f 3e 22 5d 89 bd
       0.036460362 -0.034121282 0.17136227 -0.06707217
000300 b4 1c 54 3e 40 91 34 be ad cc 1c bd 7b 61 6a bb
       0.20714074 -0.17633533 -0.03828113 -0.003576367
000310 9c ee 3e 3d 2e 3c 3d be fb b0 12 3d a1 29 15 be
       0.046614274 -0.18479988 0.035813313 -0.14566661
000320 cc e6 2b be 74 75 04 3e 4c 02 58 3c 16 1b bf 3d
       -0.16787261 0.1293543 0.013184141 0.09331338
000330 9f 19 51 bd 26 63 53 3e 7d 46 3a be 0c 6f c1 3d
       -0.051049825 0.20643291 -0.18190952 0.09445009
000340 ea fd 0e 3e 3c 77 07 3d 01 85 d1 3c c5 e1 f0 bd
       0.13964048 0.033072695 0.025576117 -0.11761812
000350 b1 c5 30 be b6 c1 e8 bd 49 02 4d 3e a8 ef b5 bc
       -0.17262913 -0.113650724 0.20020403 -0.022209004
000360 b2 5f 67 3d d6 4f d5 3d fd ee e2 bd 27 73 23 bc
       0.056487747 0.10415618 -0.1108074 -0.009976185
000370 f5 58 95 3d f8 f8 0c 3d dd 68 0b bd 10 72 bf bd
       0.07292358 0.034417123 -0.034035552 -0.093479276
000380 ba b9 1f be eb 9c 72 bd da 86 58 3e fd 89 8d bd
       -0.15598193 -0.05923168 0.21145192 -0.06911085
000390 5d c3 09 3e f9 95 c3 3d 12 da 06 be 1b 1b 39 3e
       0.13453431 0.095500894 -0.13169125 0.18076746
0003a0 02 73 31 be 85 1a 7d 3d 7a 12 f6 bd 0d d0 83 3d
       -0.17329028 0.06179287 -0.12015243 0.06436167
0003b0 38 b3 3b be 22 0a 06 3e 0a 03 98 bd fe 8d 42 bd
       -0.18330085 0.13089803 -0.07422455 -0.047498696
0003c0 69 7e 25 be a5 10 40 be 85 bb 52 be c2 f1 29 bd
       -0.16161503 -0.1875635 -0.20579346 -0.041490324
0003d0 60 60 5e 3d ae 83 6c 3d 8a bb ca bd a5 d9 97 bc
       0.05429113 0.057742767 -0.098990515 -0.018536398
0003e0 9b 71 0e 3e cb a0 48 bc 0a a6 43 3d 9a 1a f4 bd
       0.13910525 -0.012245367 0.04776577 -0.11919136
0003f0 64 f6 5b be 3e 6b 41 be d7 1f 4b 3e d4 da 7c 3d
       -0.2148071 -0.18888566 0.19836365 0.06173213

features.0.bias f4 [32]
000000 b6 9d ec bd bf f6 48 3d 6c 21 02 be eb 22 fa 3d
       -0.115535185 0.04906344 -0.12708062 0.12213691
000010 d8 79 c0 bd ef dd 83 3d b4 a0 6e 39 b1 95 6d 3e
       -0.0939824 0.06438815 0.00022757315 0.23201634
000020 01 7e 6d bc 66 a1 53 3e 22 28 a3 3d d8 bc 0d be
       -0.014495374 0.20667037 0.07966639 -0.1384157
000030 3a 7d 53 3e 6a d2 17 be b1 e2 b4 bd 51 43 3a 3e
       0.20653239 -0.1482636 -0.088323005 0.18189742
000040 b7 2a be 3d 56 ba 10 be b1 e0 b8 3d e5 3b d3 3d
       0.09285491 -0.14133582 0.090272315 0.10314158
000050 2e e0 0c be 6e 3b 08 3e cf be 82 3a 6b 89 cb bb
       -0.13757393 0.1330392 0.0009975078 -0.00621145
000060 57 ec 08 be 3c 66 ad bd fd 41 39 3e 12 3d 90 3d
       -0.13371406 -0.08466765 0.18091579 0.07042898
000070 2d 3d 28 3d c6 10 bd 3d da 63 eb bb 7d 49 b1 bd
       0.041073967 0.09231715 -0.007183534 -0.08656595

features.1.weight f4 [32]
000000 7a 61 7d 3f 2c 27 81 3f a5 dc 6a 3f 1e f9 75 3f
       0.9897686 1.0090079 0.91742927 0.9608325
000010 4f 56 86 3f 7d 44 81 3f 6a dd 82 3f fb 9c 7f 3f
       1.0495089 1.0099026 1.022382 0.9984891
000020 3b 17 65 3f 1c 52 8a 3f 32 cc 88 3f 45 d7 92 3f
       0.8948857 1.0806308 1.0687315 1.1471945
000030 68 89 66 3f f0 11 6e 3f 23 4e 65 3f 45 6e 67 3f
       0.90053415 0.9299612 0.8957235 0.9040263
000040 f4 d9 6c 3f 8e 0c 70 3f 45 42 80 3f 0e 2b 7c 3f
       0.9252007 0.93769157 1.0020224 0.98503196
000050 1d 76 7a 3f 07 fd 80 3f 44 63 80 3f a6 a9 7f 3f
       0.97836477 1.0077218 1.0030293 0.9986824
000060 78 ba 88 3f 5d 8d 6f 3f 61 62 78 3f 71 6c 85 3f
       1.0681906 0.9357508 0.97025114 1.0423719
000070 a7 a5 85 3f e0 be 86 3f 04 6a 6c 3f 1c dd 77 3f
       1.0441178 1.0527 0.92349267 0.9682176

features.1.bias f4 [32]
000000 1f 72 8b 3c 6c a2 5b bd 68 76 be bd 5f 2a 69 bd
       0.01702219 -0.053621694 -0.09299928 -0.056925174
000010 76 7c 86 3b 53 22 dd 3c 49 a9 1c 3d 12 f6 0d 3e
       0.0041041924 0.026993906 0.03824738 0.138634
000020 2b f1 21 bd 36 c6 76 3c 6b ae 49 3e 70 a0 28 3a
       -0.039536636 0.015061906 0.19695441 0.00064325985
000030 24 7a bc bd 23 b8 0d be 87 48 17 bd 8e 7e d1 bd
       -0.09202984 -0.13839774 -0.0369344 -0.102292165
000040 4e 55 20 be 9f 49 c6 bd af 9e a1 bd bc 3b 6d 3d
       -0.15657541 -0.09682011 -0.078915946 0.057918295
000050 3b 5a e2 bd ac 94 bc 3c 2f d5 01 bd c2 fc 98 bd
       -0.11052366 0.023020111 -0.03169745 -0.07470085
000060 ca c6 41 3d fa 59 02 be 19 ad 1e bd f4 2c a1 3c
       0.04730872 -0.12729636 -0.038739298 0.019674756
000070 90 8f f3 bd e4 82 a6 bd a2 14 fb bd e8 72 d4 bd
       -0.11892617 -0.08130434 -0.12259795 -0.10373479

features.1.running_mean f4 [32]
000000 00 a8 9f bc ae 66 15 3c 65 03 f5 3d e7 44 b5 3d
       -0.019489288 0.009118719 0.11963538 0.08851033
000010 3d da ea bd fb 38 bb 3c 45 9b 71 3b 5d 86 49 3e
       -0.11467407 0.022854319 0.003686623 0.19680162
000020 ee 19 5a be 0c 16 7c 3e 54 f0 d7 3c 84 b7 d0 bd
       -0.21298954 0.24617785 0.026359715 -0.10191253
000030 19 95 b2 3e 4f 6d e5 be a7 6e 73 be bb ad c2 3e
       0.34879377 -0.44809958 -0.2377268 0.3802317
000040 c3 73 bf 3b 15 1c a1 be d5 4b c6 bd 99 4f f7 3d
       0.0058426573 -0.31466737 -0.096824326 0.12075729
000050 6d ee fb be ed b3 fd 3d 63 9d 59 3d e1 88 93 bc
       -0.49205342 0.12387834 0.05312861 -0.018009605
000060 1e 10 c9 bd 1f cf cf ba 08 05 8c 3e 46 2d c4 3c
       -0.09817527 -0.0015854574 0.2734759 0.02394737
000070 07 7f d8 3b 0f 1f a0 3d 4b 80 b7 3e a1 f2 e8 bd
       0.0066069397 0.07818424 0.35840067 -0.11374403

features.1.running_var f4 [32]
000000 f1 34 e0 3b 3e 97 ad 3b cb ba 1c 3d 07 e8 98 3b
       0.0068422486 0.0052975705 0.038264077 0.0046663317
000010 5b 77 02 3c 4e 32 45 3c 36 10 dc 3b 62 21 0d 3b
       0.007963027 0.012035919 0.0067157997 0.002153479
000020 46 0b f0 3c f8 f5 41 3b 31 90 eb 3b cc a4 87 3b
       0.02930225 0.0029596072 0.00718882 0.0041395184
000030 42 0a af 3c 34 d9 21 3d 38 b5 83 3c 30 32 90 3c
       0.021367196 0.03951378 0.016077623 0.017602056
000040 16 4b 35 3c 2a 82 f5 3c 3a e2 96 3c d4 7b 7f 3c
       0.011065265 0.029969294 0.01841842 0.015593488
000050 fb 6e 59 3d 03 02 46 3b 01 eb 5f 3c 66 e0 54 3b
       0.053084355 0.0030213601 0.013666869 0.0032482385
000060 92 b4 bd 3b f5 c6 96 3b b1 47 f9 3b 7c 9b 57 3c
       0.005789348 0.0046013542 0.0076074232 0.013159629
000070 43 e0 af 3b ad fa 37 3a 9e 8d b5 3d 43 b1 e9 3b
       0.0053673103 0.00070182496 0.08864902 0.007131727

features.4.weight f4 [64, 32, 3, 3]
000000 76 97 f3 3a 90 b8 eb 3c b6 d5 50 3d 65 5a ba bd
       0.0018584568 0.02877453 0.05098506 -0.09099273
000010 92 2f 27 bc 35 b9 b9 3c 08 f1 c4 bd b1 17 9d bd
       -0.010204213 0.022671321 -0.096162856 -0.076705344
000020 21 79 a8 bb 88 bd 2b 3d b6 7a 11 bd 07 ad 1c bc
       -0.005141393 0.041928798 -0.035517417 -0.009562737
000030 ad 44 c9 3d 30 12 8e 3d 38 34 cd ba e0 2f c2 3b
       0.09827552 0.06937063 -0.0015655821 0.0059261173
000040 85 af 88 bd b5 21 af bd 1c 4f 63 bb 91 5f 7f 3c
       -0.06674103 -0.08551351 -0.0034684604 0.01558675
000050 62 7a 3c 3d 40 ba 83 bd bc c6 ac bd 86 6f e9 bd
       0.04601515 -0.06432009 -0.08436343 -0.113982245
000060 6b 02 95 bd c9 e5 66 bd ec f5 4f bd 2c c9 42 3c
       -0.07275852 -0.056371484 -0.05077164 0.011888783
000070 b3 65 59 3c 6e 4e 49 3b d7 6c d5 3c c2 14 20 3d
       0.013268876 0.0030716914 0.026052875 0.039082296
000080 86 37 80 3d 34 95 a9 bb e2 7c 11 3d 36 06 94 bb
       0.0626059 -0.005175257 0.03551949 -0.004517342
000090 40 10 42 bd dd 02 0a bd e1 55 29 bd 68 4d 6c 3d
       -0.04737878 -0.033694137 -0.041341666 0.057691008
0000a0 97 fe 4e bd 19 9a 85 bd 3a 89 fa 3b 13 cf 54 3c
       -0.050535765 -0.065235324 0.007645753 0.0129888235
0000b0 e2 4a ab bc 40 07 b5 bc fe 99 80 bc 95 c7 d9 bc
       -0.02090973 -0.022098184 -0.01569843 -0.026584426
0000c0 77 fb 8f 3b 48 47 42 bc b6 33 44 bc d0 71 0f 3d
       0.0043939906 -0.011857815 -0.0119752195 0.03502065
0000d0 d7 00 ca bc 92 e6 12 3d f1 3a 61 3b e1 4f 1b bd
       -0.024658604 0.03586442 0.0034367407 -0.037917975
0000e0 96 58 8e 3d ae e8 f2 bc d2 f3 5a bd 11 1f 91 3d
       0.0695049 -0.029651966 -0.05345518 0.070860036
0000f0 1e 4c 8b 3d 62 2c 7b 3c 9c ae 3e bd 43 3c 85 3d
       0.068016276 0.015330406 -0.04655324 0.06505635
000100 e7 50 74 3c 59 9c e0 3d a5 62 92 3b 42 72 6d bd
       0.014911867 0.10967321 0.0044673258 -0.057970293
000110 d1 36 ca 3d 71 3e 8d bd e9 a6 c3 bb a3 9a 5d bd
       0.09873737 -0.068966754 -0.005970825 -0.05410255
000120 d1 58 31 bd eb 13 21 bc d1 e6 83 3c 61 64 fa bc
       -0.043297593 -0.009831409 0.016101273 -0.030565443
000130 64 ed 94 bb 6b 52 9a bd af a3 60 bd 34 eb 70 bb
       -0.0045449007 -0.07535251 -0.0548436 -0.0036761286
000140 78 79 a3 bc 0a cb 57 3d e7 08 2e 3c ca 3c 1e bd
       -0.019955382 0.052683868 0.01062224 -0.03863219
000150 b6 08 08 bd 43 5a b3 bc de 57 bf bd 7f c9 65 bd
       -0.033211432 -0.021893626 -0.09342931 -0.056100365
000160 02 cc 9e 3c 17 67 a8 bc b9 62 f5 ba 86 93 77 3d
       0.019384388 -0.02055697 -0.0018721438 0.060443424
000170 5a 8a a6 3d a9 1b 78 bd 87 ae 11 3c ee f5 e2 3d
       0.08131857 -0.060573254 0.008891708 0.110820636
000180 c5 5b 1f 3c 76 87 b9 3d a6 b8 ca 3c 75 3e 02 bd
       0.009726469 0.0905904 0.02474625 -0.031797845
000190 3f c4 bb 3d 55 97 bc 3d 73 41 96 bc d3 47 7c 3d
       0.0916829 0.09208552 -0.018341755 0.061591934
0001a0 0a 66 2e 3d 2e 1b 7a 3a 24 09 e2 3b 69 2b 86 bd
       0.04257778 0.0009540793 0.0068980623 -0.065512486
0001b0 38 82 23 bd a8 00 9c bb e3 91 4b 3c 91 cf 45 3d
       -0.03991911 -0.0047608204 0.012424919 0.048293654
0001c0 e2 11 e5 3c aa 57 b8 bb 6d a9 4c bd f3 4a 12 3d
       0.027962629 -0.0056256847 -0.049966265 0.03571601
0001d0 e5 bc 03 3d 95 f1 19 bb fb fb 88 bd 67 f4 24 bd
       0.032162566 -0.0023489941 -0.066886865 -0.040272143
0001e0 09 9a cc bc 34 e1 5d bc df 15 67 3d 85 ef 57 bc
       -0.024975793 -0.013542462 0.056417342 -0.0131796645
0001f0 6a e0 7a 3d f2 21 3c 3d d8 40 01 3b 1d 58 fd bc
       0.061249174 0.04593081 0.0019722488 -0.030925805
000200 15 d9 ed 3c f7 2a d9 bc 11 e3 a3 3c ce cf d0 bc
       0.029034177 -0.026509745 0.020005735 -0.025489714
000210 9f d4 02 3d dc 0e 07 3d 39 58 5e 3c aa c9 86 bd
       0.031941053 0.032973155 0.013570839 -0.06581433
000220 8c 5a 19 3b 1d b4 57 bd f5 29 c5 bd b3 da 9d bd
       0.0023399917 -0.052662004 -0.09627143 -0.07707729
000230 80 e0 10 bd 05 c3 f9 bd c1 63 c1 bc 53 47 b1 bd
       -0.03537035 -0.121954 -0.023607137 -0.08656182
000240 d2 45 e4 bc 0c 9a 40 bd ed ff 1b 3d 3e cc 38 bd
       -0.027865324 -0.04702191 0.038085867 -0.045116656
000250 1a a6 98 bd 1a 91 5b 3d 49 5c 3a 3c 21 7d e0 bb
       -0.07453556 0.053605177 0.011374542 -0.006850854
000260 88 31 71 bc d9 64 8f bd 4d e2 2d 3d 91 d8 55 bd
       -0.014721282 -0.07001657 0.042452145 -0.052208487
000270 f4 0f d1 3c 2f 6b e7 bc 8d 90 1c 3d c0 8e 92 bb
       0.025520302 -0.028249351 0.038223792 -0.0044725835
000280 36 d2 0a bd 84 b5 de 3a c5 93 61 bd ba de e0 bb
       -0.03389188 0.0016991352 -0.055072565 -0.0068624886
000290 e7 c7 22 bd b8 7e 28 3d 10 d7 98 3c 9a a4 80 3d
       -0.039741423 0.041136473 0.018657237 0.06281395
0002a0 11 92 af 3c 41 db cb 3c 68 08 21 bd c7 19 9a bc
       0.021431955 0.024884822 -0.039314657 -0.01881112
0002b0 7b b1 14 3c bb 01 1a 3d 2f 1d e6 3c 57 ef 51 3d
       0.009075518 0.037599307 0.028090088 0.051253643
0002c0 15 b7 74 3d 86 04 5e bc 64 47 27 3d c4 69 c4 bc
       0.059744913 -0.013550883 0.040839568 -0.023976214
0002d0 1e b6 4f 3d 05 0f 1a 3d 8b fc a2 3b 30 e6 18 3d
       0.05071079 0.03761198 0.004973953 0.0373289
0002e0 37 d3 3e 3d f6 c1 e4 3c 72 90 52 3d a3 98 60 3d
       0.04658815 0.027924519 0.051407285 0.054833066
0002f0 d5 0e ac 3d 6d 49 7e 3d 0b f4 b8 3d d1 b3 ef 3c
       0.084012665 0.062081743 0.090309225 0.029260548
000300 4d 64 c0 3c ca 64 6f bb 58 3c 48 bd dd 7f ec bc
       0.023485327 -0.003652858 -0.048885673 -0.028869564
000310 6b 68 46 bd 5e 49 7d 3d cb 69 0a be 6e 7e 59 bd
       -0.048439424 0.061837547 -0.1351692 -0.05309909
000320 32 ea 3e bd e7 11 ab bd 3a e4 ce bd 65 7e 89 bc
       -0.046610065 -0.08353024 -0.101021245 -0.016783902
000330 48 40 d8 bd 84 21 24 be e5 71 26 bd 25 ff d6 bc
       -0.10559136 -0.1602841 -0.040635962 -0.02624471
000340 7e d2 d1 bc 43 e3 a6 bc 4a b2 3e 3d 75 7f d1 3c
       -0.025613066 -0.020372039 0.04655675 0.025573472
000350 ca 2b 2a 3d d2 af 76 3d 45 bb 2c 3d 43 a2 80 bd
       0.041545667 0.06022627 0.04217078 -0.06280949
000360 08 7c f1 3a ce 4a b3 3d 59 89 7e 3d cb 09 c0 bb
       0.0018423805 0.08754502 0.062142704 -0.0058605424
000370 37 ff 8e bd d7 c9 d6 bc 80 46 94 bd f8 e5 e8 3b
       -0.06982272 -0.026219292 -0.07240009 0.0071074925
000380 57 fb de 3b d0 76 af bd b1 e6 50 3d 5b c4 b2 3d
       0.0068048644 -0.085675836 0.051001254 0.08728858
000390 56 f6 cd bd e4 72 04 3d 1f 69 24 3d 9a 37 23 bd
       -0.100567505 0.03233613 0.040139314 -0.039847948
0003a0 53 dd cc bd c5 82 93 bd 2c fb 86 bd 95 08 04 be
       -0.10003152 -0.07202677 -0.06590876 -0.12893899
0003b0 81 57 3b bd 16 64 06 be ab 4f ec bd 48 a2 a3 bd
       -0.045737747 -0.13124117 -0.11538633 -0.07989937
0003c0 f2 b3 10 be dc d0 de bd ef cd 1e be 49 60 81 bd
       -0.14131144 -0.108796805 -0.15508245 -0.06317193
0003d0 b9 2e 08 bd ff 7a d8 3c 41 96 a3 bd c7 2e 76 3c
       -0.033247683 0.026425837 -0.07987643 0.015025801
0003e0 98 3f 28 3c 58 be 92 bd 37 9a 17 bd d4 53 aa 3c
       0.010269068 -0.071652114 -0.037012305 0.020791925
0003f0 b8 f7 04 3d 11 ec 28 bd ef c9 a3 bc b0 37 41 bd
       0.032462806 -0.041240755 -0.01999375 -0.04717225

features.4.bias f4 [64]
000000 03 f6 1c bd 8e 72 2e 3d 40 43 e7 bc 2e 87 44 3d
       -0.038320553 0.042589717 -0.02823031 0.04798048
000010 d3 92 67 3d cd ff 1d bc 34 03 8e bc f8 71 1e bd
       0.056536507 -0.009643507 -0.017335512 -0.038682908
000020 3e 43 47 3d 9f 0f 08 3a 8b 81 c9 bc 04 88 31 3c
       0.04864811 0.0005190316 -0.024597904 0.010835651
000030 36 d7 2f 3d f1 12 64 3c 3c 20 71 bd ea 03 3c 3b
       0.04292985 0.013920532 -0.05886863 0.0028688856
000040 23 71 2d bc 31 ed 1e bc 91 63 17 bd 3c 66 99 bb
       -0.010586056 -0.0097001055 -0.03696019 -0.0046813767
000050 14 71 e2 bc 66 38 d1 3c 5a 98 53 bd 88 28 f9 bc
       -0.02764181 0.025539588 -0.051658966 -0.030414835
000060 e9 8d 36 3c 14 28 dc 3c 80 dc b3 3c 89 72 15 3d
       0.011142232 0.02687458 0.021955729 0.036486182
000070 26 1e b9 3c 40 40 3b 3d 76 f8 17 3b ad 45 49 3c
       0.022597384 0.04571557 0.0023188866 0.012284678
000080 96 92 ce bc b8 b9 8d bc 34 02 1e 3d e5 9b fc 3c
       -0.025216382 -0.017300472 0.03857632 0.030836055
000090 21 53 61 bd 98 4c 68 ba d9 90 dc bc ca 97 3e 3c
       -0.05501092 -0.0008861511 -0.026924537 0.011632869
0000a0 03 0e 7b 3d f1 86 8c 3c 01 fa dc 3c 72 e6 c6 3b
       0.06129266 0.017154189 0.02697468 0.0060699517
0000b0 92 30 0d bc 0a 91 4c bc 38 ad 18 3d 67 61 14 3c
       -0.008617537 -0.012485752 0.03727457 0.009056426
0000c0 4e a3 08 3d e4 d0 a6 bc c3 23 e1 bb e7 fa f2 bc
       0.033358864 -0.020363279 -0.006870718 -0.029660655
0000d0 d4 56 e5 bc c5 7e 32 bd 4c 85 24 bc af a7 1d bd
       -0.027995504 -0.043577928 -0.010041546 -0.038489994
0000e0 26 0d 87 bc 97 be 8c bb 65 56 22 3d 3e ab 13 bd
       -0.016485762 -0.004295181 0.039633173 -0.03605198
0000f0 34 80 99 3a 1e 07 06 bd 5a 68 09 3d 28 08 34 3d
       0.0011711181 -0.03272163 0.033546783 0.04395309

features.5.weight f4 [64]
000000 76 19 87 3f 0a 08 73 3f 6b 53 82 3f 46 58 80 3f
       1.0554645 0.9493414 1.0181707 1.0026939
000010 fc 78 7d 3f 3e 00 81 3f 5d 62 77 3f ad ad 7a 3f
       0.9901273 1.0078199 0.96634465 0.9792126
000020 8d 66 7a 3f bd 12 82 3f 6b 01 84 3f 47 78 82 3f
       0.9781273 1.0161968 1.0312933 1.0192956
000030 3b da 83 3f 18 00 88 3f da 6c 84 3f 87 47 88 3f
       1.0300974 1.0625029 1.0345719 1.0646828
000040 0c dc 7a 3f 7a 06 84 3f 5f 99 80 3f 15 59 89 3f
       0.97992015 1.0314476 1.0046805 1.0730311
000050 d7 a6 82 3f 9d ab 80 3f 26 dd 70 3f 01 22 6d 3f
       1.0207165 1.0052372 0.94087446 0.9263001
000060 64 e4 75 3f 4e 09 80 3f 94 b4 84 3f e9 33 84 3f
       0.9605162 1.000284 1.0367608 1.0328342
000070 e2 c7 85 3f 44 61 7f 3f 85 96 7e 3f 80 06 80 3f
       1.0451624 0.9975779 0.99448425 1.0001984
000080 3d 97 72 3f 98 e6 7b 3f ef 64 80 3f 8d 98 83 3f
       0.9476202 0.98398733 1.0030802 1.028093
000090 e9 96 85 3f b1 32 83 3f 57 6e 7f 3f c4 71 87 3f
       1.0436679 1.0249845 0.9977774 1.0581594
0000a0 a8 ce 8b 3f 0c 7e 80 3f d7 4b 70 3f 45 02 82 3f
       1.0922441 1.0038466 0.9386572 1.0156943
0000b0 c0 9b 72 3f 28 93 86 3f 7f 23 7b 3f e8 4c 80 3f
       0.94768906 1.0513659 0.9810104 1.002347
0000c0 6c 8b 79 3f b2 5b 81 3f 72 59 81 3f a6 4c 80 3f
       0.97478366 1.0106108 1.0105422 1.0023391
0000d0 45 d3 81 3f 9b 1e 85 3f 14 90 83 3f 5d e8 87 3f
       1.0142599 1.0399965 1.0278344 1.0617787
0000e0 67 b7 80 3f 31 12 83 3f be d4 85 3f 6a db 80 3f
       1.005597 1.0239927 1.0455549 1.006696
0000f0 cb 55 7b 3f c2 59 7b 3f 49 37 7e 3f d6 ca 76 3f
       0.98177785 0.98183835 0.9930311 0.96403253

features.5.bias f4 [64]
000000 76 f2 45 3c 44 8a 70 bd 91 5e 5f bc 69 0c b6 bb
       0.012081733 -0.05872561 -0.013633386 -0.0055556786
000010 c5 31 13 bd a2 6a 93 bd 81 29 2c bd 6b f9 23 be
       -0.035936136 -0.07198073 -0.04203177 -0.16013114
000020 3e 15 af bc d8 fa 1f bd b2 34 12 bd 01 06 47 bd
       -0.021372434 -0.039057583 -0.035694785 -0.04858971
000030 8f 82 e4 bd 3c 05 5f 3d a4 28 05 be f4 b4 50 bc
       -0.111577146 0.05444835 -0.13003784 -0.012738455
000040 d1 6b 0e be d0 41 e7 bd 0d 3b 36 bd 34 89 b3 bd
       -0.13908316 -0.112918496 -0.04448991 -0.08766404
000050 b0 3c e1 bd b8 d5 e8 bd e3 8e 04 be 09 d4 c5 bd
       -0.10997903 -0.113688886 -0.12945132 -0.09659583
000060 9f d8 c1 bc d5 2c 80 3c c7 1d 15 bd 0d b7 f0 bd
       -0.023662863 0.015646378 -0.03640535 -0.11753664
000070 99 29 9c bc 97 e5 cc bd ab 93 00 be aa 4e 82 bd
       -0.019062804 -0.10004728 -0.12556331 -0.0636266
000080 f1 82 10 bd 5e 3e 15 be 10 b2 85 bd 39 3c 25 be
       -0.035281125 -0.14574572 -0.06528103 -0.16136254
000090 e5 49 99 bd 88 cf 3f bd 40 6b 9e bd 24 c4 65 bd
       -0.074847974 -0.046828777 -0.077353 -0.056095257
0000a0 4f 46 ab bd cf b7 60 bc ac 8e e6 bd a1 f4 7f bc
       -0.0836302 -0.013715698 -0.11257681 -0.015622289
0000b0 88 33 30 be bf ce cd bd 40 92 40 bd 27 19 0c be
       -0.17207158 -0.10049199 -0.047014475 -0.1368147
0000c0 77 42 43 3c 3c 2e 2c be 90 b4 0f bd cc 97 92 bd
       0.011917702 -0.16814512 -0.035084307 -0.07157859
0000d0 28 d9 8b bd f1 f6 28 bd d7 9c fb bb 2d 1e 39 bd
       -0.06828529 -0.041251127 -0.007678609 -0.045194793
0000e0 42 5c 02 be 78 dc 11 be 9c 83 b2 bb 20 93 c4 bd
       -0.12730506 -0.14244258 -0.005447818 -0.09598374
0000f0 f1 d4 30 bc ca 24 a1 bd 7c 23 89 bd 7e ad 9d bd
       -0.010792957 -0.07868345 -0.06696221 -0.07699107

features.5.running_mean f4 [64]
000000 77 58 0e bf ee 42 0c c0 6e 39 f8 3f 58 5c 1e bf
       -0.55603737 -2.191585 1.9392526 -0.61859655
000010 ac 95 df bf 7c b0 1d c0 9b 9e ae be 39 9f 35 c0
       -1.7467551 -2.4638968 -0.3410538 -2.8378432
000020 50 9e e4 bf 5f e9 ff bf 6e fd 2b be e8 37 46 c0
       -1.7860813 -1.9993094 -0.16795895 -3.0971622
000030 27 39 05 c0 54 fa 50 c0 04 4b b8 3e ca 30 8c bf
       -2.0816133 -3.2652788 0.35994732 -1.0952389
000040 fc 15 8a bf dd ec 53 c0 1e 82 e5 bf bd 74 96 3d
       -1.0787959 -3.311332 -1.7930334 0.07346485
000050 e7 21 33 40 7c a2 c6 bf 50 79 ab bd 74 66 bf bf
       2.7989442 -1.5518336 -0.08372748 -1.4953141
000060 25 0b c8 bf 4d 94 b8 bf 04 f8 a9 bf 95 cc 1a bf
       -1.5628401 -1.4420258 -1.3278813 -0.6046842
000070 8a 59 68 bf b6 c7 ec bf 68 f1 07 c0 df 72 0d c0
       -0.90761626 -1.8498447 -2.1241093 -2.2101362
000080 80 f8 7a bf c0 5f 28 c0 b5 5d 0a c0 25 b1 14 c0
       -0.9803543 -2.630844 -2.1619694 -2.323312
000090 84 c3 09 bf a5 ac 06 c0 93 c8 2b c0 d5 6c ac bf
       -0.5381396 -2.1042874 -2.684117 -1.3470713
0000a0 df 5b 94 be fa 0d 1b c0 89 02 fa 3f 89 d7 c0 bf
       -0.28976342 -2.422728 1.9532024 -1.5065776
0000b0 07 7a d1 3e 2f ed 7a 3e 94 78 95 bf a5 5f 0f 3e
       0.40913412 0.24504541 -1.1677423 0.14001329
0000c0 36 25 f9 bf bf e5 21 40 be 21 f0 bf fd cb 26 c0
       -1.9464481 2.5296476 -1.8760297 -2.6062005
0000d0 6a 95 fd bd 4c d3 2b bf cb 24 ff bf fc a9 e1 bf
       -0.12382014 -0.6711929 -1.9933103 -1.763
0000e0 00 78 18 40 43 24 1d c0 fe dd c1 bf d8 b5 bf 3e
       2.3823242 -2.4553382 -1.5145872 0.37443423
0000f0 a4 2e 81 bf 1c 4d 63 bf b2 07 92 3f 5c 94 cf 3e
       -1.0092359 -0.88789535 1.1408598 0.40542877

features.5.running_var f4 [64]
000000 b1 03 39 40 34 6f 68 40 9a a7 2d 40 0e db 2d 40
       2.8908503 3.6317873 2.7133546 2.716495
000010 2e 42 47 40 43 02 a8 40 db 79 55 3f 1c fc 5b 40
       3.1134143 5.250276 0.8338906 3.4372625
000020 fe 5b 93 40 c7 46 d2 3f a6 d6 4c 40 0e ff 0d 41
       4.6049795 1.642785 3.200601 8.874769
000030 71 cd 19 40 f6 9e a8 40 9a 98 fe 3f 6d 9f 06 40
       2.4031641 5.2694044 1.989032 2.1034806
000040 d5 e4 85 3f dc cd e3 40 5f 72 6b 40 e6 ca 86 3f
       1.0460459 7.1188793 3.6788557 1.053067
000050 69 2b 46 40 c0 74 1a 40 7f ff 6b 3f ab 7c 02 40
       3.0963995 2.4133759 0.9218673 2.0388591
000060 1a e3 85 40 5a 4b cd 3f bc 80 00 40 cb 56 12 40
       4.1839724 1.603862 2.0078573 2.2865474
000070 50 7b 18 40 5b 63 09 40 61 8d 0f 40 23 60 8c 40
       2.3825264 2.1466892 2.243004 4.3867354
000080 13 7f 04 40 81 ed 92 40 95 58 61 40 2b 1d 29 40
       2.070256 4.591492 3.5210316 2.6424053
000090 cc 60 80 3f 6a 17 26 40 b4 6e 95 40 00 cd aa 3f
       1.002954 2.595179 4.6697636 1.3343811
0000a0 f4 34 47 3f dc e6 57 40 70 54 82 40 39 15 04 40
       0.77815175 3.3734655 4.0728073 2.0637953
0000b0 d1 b0 bf 3f 1c 6d 1f 40 67 be b9 3f 36 00 73 3f
       1.4975835 2.4910345 1.4511231 0.94922197
0000c0 e4 dd c3 40 f6 c3 7f 40 57 f7 35 40 cd f8 b4 40
       6.1208363 3.9963355 2.8432214 5.655371
0000d0 a8 c4 8c 3f 93 4d b9 3f a3 ad 14 40 23 f5 8f 40
       1.0997515 1.4476799 2.323098 4.498674
0000e0 4e e4 0e 40 11 62 77 40 72 8b 9d 3f b5 17 51 40
       2.2326846 3.8653605 1.230818 3.267072
0000f0 eb 9c 68 3f a5 98 b2 3f c7 40 43 40 bc 58 01 40
       0.9086444 1.3952833 3.0508287 2.021041

features.8.query.weight f4 [8, 64, 1, 1]
000000 20 c9 82 bd d9 f2 8e bd 2b 7a 03 3c 2f 31 1a 3c
       -0.06386018 -0.06979913 0.008024733 0.00941114
000010 bc 22 5c 3d 08 ef 50 bc 5e 5f c1 3d 2e 29 e0 3d
       0.053744063 -0.012752302 0.09442018 0.109453544
000020 73 58 37 3d 9e 5a 25 be 5c 79 43 be 17 69 c5 bd
       0.044762086 -0.16147849 -0.19089264 -0.09639185
000030 6b 33 f9 bc b5 bb fe bd f1 48 ae 3d 7d 9c a9 bd
       -0.030420026 -0.12438146 0.08510006 -0.08281801
000040 5d 40 0f bd ca 0d 21 bb 20 69 08 be a8 cc d9 bd
       -0.03497349 -0.002457487 -0.13321352 -0.10634738
000050 fe 7a 28 bd 1b 69 d0 3d 2f b3 58 bd 31 76 18 3e
       -0.04113292 0.10176297 -0.052905258 0.14888836
000060 29 66 24 3d db 05 16 bd 03 ed eb 3d e2 a5 a3 3d
       0.04013649 -0.036626678 0.11519816 0.07990624
000070 f8 41 a0 bd 1c 44 f5 3c df 4d e4 3d 5c a8 dc bd
       -0.078250825 0.029939704 0.11147665 -0.107742995
000080 87 7b af bd aa b3 0b 3d 3b ed 3f bd b2 66 e4 3d
       -0.08568483 0.034106888 -0.0468571 0.111524
000090 e5 d4 77 3d 22 fd dd bd 23 7c c5 bd e7 79 e0 3d
       0.060505766 -0.10839297 -0.09642818 0.10960751
0000a0 f5 f8 05 be 87 ee de 3a 4a 80 93 3d 0c 01 7a 3d
       -0.13083251 0.0017008343 0.072022036 0.061036155
0000b0 e7 ae 03 bd 26 30 33 3e 10 16 6b bd a2 08 3d bd
       -0.03214922 0.17498836 -0.057394087 -0.04615081
0000c0 39 95 ac 3d 17 9a 70 3d ac eb a4 bd e4 ae 0d bd
       0.084268995 0.0587407 -0.08052763 -0.034590617
0000d0 db cd cf 3d f8 7e 92 3d 89 bc c1 3c e1 bb cb 3d
       0.10146686 0.071531236 0.02364947 0.099479444
0000e0 01 4d 1c 3d 9b 2f 3d bd ec 3f 38 be b4 87 11 3d
       0.038159374 -0.04618798 -0.17993134 0.035529807
0000f0 8c 32 f4 bd 06 68 e6 3c 88 7e 48 be c8 3c b0 3d
       -0.119237036 0.028125774 -0.19579518 0.08605343
000100 3b b5 55 bd 23 8c 5c 3b 8c 8c d7 bb 6b 19 7e bd
       -0.052174788 0.0033652864 -0.006578034 -0.06203596
000110 31 c7 29 be aa 13 da 3c f7 02 03 be 11 ed 20 3b
       -0.16579892 0.026620705 -0.127941 0.0024555365
000120 b9 45 03 be 35 d7 18 bd 05 77 b3 bd 85 dc 2b 3d
       -0.12819566 -0.037314612 -0.087629355 0.04195835
000130 e1 98 12 be 5b e2 b5 3d 86 19 19 be 72 46 7f bd
       -0.14316131 0.088810645 -0.14951143 -0.06232304
000140 d4 e7 b1 3c 77 ea 89 3d ed 7f cf bd ac 8c a4 bd
       0.02171699 0.06734174 -0.10131822 -0.080346435
000150 21 bc e4 bc fc f1 73 bd f7 bd 46 3c 67 c6 9b bd
       -0.027921738 -0.059556946 0.012130252 -0.076062016
000160 c8 f2 10 bd f1 34 0d 3d 09 50 b1 3d 05 92 08 be
       -0.035387784 0.034474317 0.086578436 -0.13336952
000170 b8 f4 ba 3d 5b a7 cf bd 5f 4c 11 be ab a1 83 bd
       0.09128708 -0.101393424 -0.1418929 -0.0642732
000180 66 b9 a8 bd 1b 59 7d bc 38 38 3d bd 2a 2a 38 be
       -0.08238487 -0.015463139 -0.046196193 -0.17984834
000190 de 78 e8 3b fb 09 30 be 1a 66 9e 3d 53 98 d5 3c
       0.0070944866 -0.17191307 0.07734318 0.02607361
0001a0 6b b9 a7 3c 30 a5 ed bd 84 4b 06 be 4a fb 78 39
       0.020474156 -0.11603773 -0.13114744 0.00023744736
0001b0 04 12 fa bd 00 bb 85 bd c2 0c 21 be 41 5e d0 bd
       -0.122104675 -0.06529808 -0.15727523 -0.101742275
0001c0 79 d2 f4 bd 3b af 01 b9 35 ba 0f be b8 30 0e be
       -0.11954207 -0.00012367677 -0.14035876 -0.13885772
0001d0 9a 3d e8 bd a8 f7 57 bd c0 43 2b b9 3a 67 b9 bd
       -0.113398746 -0.052726418 -0.0001633307 -0.09052892
0001e0 b5 16 2a bd 09 fa ab 3d 54 8a 01 be b0 07 b2 bd
       -0.04152556 0.083973 -0.12650424 -0.086928725
0001f0 bb 5d f6 bd b0 1d 87 bd 0d 4d 5c 3a 24 5d f0 bd
       -0.120295964 -0.06597459 0.00084038154 -0.11736515
000200 33 0e 66 bc 47 ac 34 3e bc 9d f3 bc c9 61 15 3d
       -0.014041471 0.17643844 -0.0297383 0.03647021
000210 20 50 23 3d b0 b5 9c 3d 98 8b 77 3e b0 9a b9 3a
       0.039871335 0.07651842 0.24174345 0.001416048
000220 f5 1a f2 bc 97 a0 71 3d 1d 68 7c bd d3 17 b3 bd
       -0.02955387 0.05899104 -0.061622728 -0.087447785
000230 42 1d 22 3e 42 d1 ae bd 6d a3 82 3e 89 ad 06 bd
       0.15831473 -0.085360065 0.2551531 -0.03288034
000240 10 ce 8d 3d ef 1f a2 3d 5f 30 38 bd fa 89 89 3c
       0.06924069 0.07916247 -0.044968005 0.016789425
000250 ba 7e af 3d 1b 2b df 3c 7c 82 91 3d 7d 46 f6 bd
       0.08569093 0.027242234 0.07104966 -0.12025163
000260 f1 f1 04 3c e3 eb ac 3d 4a 0b ad 3a 6a 10 92 bd
       0.008114324 0.08443429 0.0013202217 -0.07132037
000270 c8 bb d5 3d 8f cd fc 3d bd 89 96 bc 2c 67 12 3d
       0.10436207 0.12343895 -0.018376226 0.035742924
000280 d3 4c f3 3c a3 df 1b bd 14 1b cd bd 1b e6 9b 3d
       0.029699719 -0.038055073 -0.1001493 0.076122485
000290 ac 40 10 3d ef 7b 8b 3e 5f 4f e8 bd 0d 19 01 3d
       0.035217926 0.2724299 -0.11343264 0.03151803
0002a0 43 f7 ea 3d 46 57 d8 3d 4c 7b 83 bd e7 c5 7c 3d
       0.11472943 0.10563521 -0.064200014 0.061712172
0002b0 20 bb 61 3d 9c 27 10 be 3d d8 90 3e 29 1f a4 bd
       0.055110097 -0.1407761 0.28289977 -0.08013756
0002c0 85 ef 9e bd 4a 2c 41 3d e4 ac 41 bd 9a 55 0f be
       -0.077605285 0.047161378 -0.047284022 -0.13997498
0002d0 d2 01 c7 3d 2e 53 8a bd 0a c4 37 3e 8b e1 28 bc
       0.09717144 -0.067541465 0.17945877 -0.01030768
0002e0 a1 6e 8c bd cd 60 a7 bc b7 39 0d 3e 51 72 ef bd
       -0.06857038 -0.0204319 0.13791548 -0.11691726
0002f0 4c 80 ca 3d e7 d3 d8 bc ca ed f3 3d a0 57 ba bd
       0.09887752 -0.02646823 0.11910589 -0.090987444
000300 08 c2 58 3d e3 05 73 bc 4c e1 c5 bc f3 e5 9f bd
       0.052919418 -0.0148329465 -0.024155281 -0.07807531
000310 73 f6 18 be 77 1b 86 bc b3 99 d6 bd f1 cc 34 3e
       -0.14937763 -0.016370518 -0.104785345 0.17656304
000320 12 e1 02 be 02 45 4f 3d 9c a1 bf 3d f7 37 0e bd
       -0.1278117 0.05060292 0.093569964 -0.03472134
000330 ad 17 c8 bd cd ef ea 3c 9d e8 c6 bd 7a 1a 90 3d
       -0.09770141 0.028678799 -0.09712336 0.070363
000340 99 a1 8e bd 5b 3a 3d be 02 fb ca bd e5 3e 90 3d
       -0.06964416 -0.18479292 -0.09911157 0.07043246
000350 80 0b 47 bd 84 1b cf 3d 5e f4 23 bd aa c5 24 3c
       -0.04859495 0.1011267 -0.04002797 0.010056892
000360 f5 6a 15 3e 1b 4b 19 be 92 e2 7f bd 7a a4 b1 bd
       0.14591582 -0.14970057 -0.062471934 -0.086739495
000370 92 51 ab 3c d3 8a bb 3a ff cf e7 3d 60 af 2b bc
       0.02091292 0.0014308341 0.11318969 -0.010478824
000380 fd c1 f8 bd 48 bd 05 bc 7e 6a 4e 3d 20 c8 33 3e
       -0.12146375 -0.008162804 0.050394528 0.1755681
000390 c8 86 b9 bc 5b dd 8d 3c db d0 24 be 45 0b 81 bd
       -0.022647277 0.017317465 -0.16095297 -0.063009776
0003a0 d1 f3 9a bd 2a fc da 3d f8 0b cf bd 5e e5 1a 3e
       -0.075660355 0.10692628 -0.10109705 0.15126559
0003b0 05 d5 08 3e e1 10 d3 3d e1 f1 bf 3c 69 06 33 bd
       0.1336251 0.10305954 0.023430767 -0.043707285
0003c0 16 5e b9 bd b0 05 60 bd 83 7d e7 3c 84 be 4d 3d
       -0.090511486 -0.054692924 0.02825809 0.050230518
0003d0 35 8f 40 3c ae 76 22 3e 30 19 ad 3c 57 28 32 be
       0.011752893 0.15865585 0.021130174 -0.17398201
0003e0 36 e2 04 bd 24 60 d9 3d d4 b0 c9 3d 75 e7 56 be
       -0.032442294 0.106140405 0.098481804 -0.20986731
0003f0 9b bf 31 3e 95 8f a3 bd 35 36 9d bc 8e c5 b4 bd
       0.17358248 -0.079863705 -0.019190887 -0.08826743

features.8.query.bias f4 [8]
000000 22 dd 28 3d 65 c5 33 be 66 b2 ea bc f6 4c d0 bd
       0.041226514 -0.17555769 -0.02864952 -0.10170929
000010 8b c6 c4 bd fe 3d 39 be 66 c8 d5 bc fc cd 09 3e
       -0.096081816 -0.18090054 -0.026096534 0.13457483

features.8.key.weight f4 [8, 64, 1, 1]
000000 c8 c1 cb bc 0a cc 8a bd 38 88 09 bd 72 6e 81 bd
       -0.024872676 -0.067771986 -0.033577174 -0.06319894
000010 5b 76 0e 3b 8d 0c f7 bd 48 e0 3f 3e 81 f4 0d 3c
       0.0021738026 -0.12062941 0.187379 0.008664251
000020 2d 74 c4 bc 0c a8 22 3d 55 27 2f 3e 24 b7 22 be
       -0.023981178 0.039711043 0.17104848 -0.15890175
000030 b0 bd 82 bc 48 9e 8c bd c5 d4 d5 bc 9a ea d4 3d
       -0.01595959 -0.06866127 -0.026102433 0.10396309
000040 e5 3f f4 bd a5 a3 01 be 75 08 de bd 85 69 b9 bd
       -0.119262494 -0.12660082 -0.10841457 -0.090533294
000050 6b ff 16 3d 10 59 05 bd 69 92 35 bd a2 cd 1a 3e
       0.03686468 -0.03255564 -0.04432908 0.15117505
000060 7d 5c aa 3c 08 32 b2 bd 30 bb 62 bd ba 5a ba 3d
       0.020796055 -0.08700949 -0.055354297 0.09099336
000070 a2 88 5d bd e3 4c 20 3e 66 10 86 bb 91 82 d0 3d
       -0.05408538 0.1565433 -0.0040913103 0.101811536
000080 28 26 bd 3d d8 8f f5 bb 28 08 9a bd aa 3b d2 3c
       0.09235793 -0.007493954 -0.07521087 0.025663216
000090 f0 b3 78 bd 31 36 02 bd 8a 4e 11 3d ae a1 70 3d
       -0.060718477 -0.031789962 0.03547529 0.05874794
0000a0 cb d0 9f 3b 78 fe 06 be 99 48 04 3e d1 9f 36 3e
       0.004877185 -0.1318301 0.12918319 0.17834403
0000b0 34 1a 79 bd 7f ba 7f 3e 8d f4 97 3d 97 fc 11 3d
       -0.060816005 0.24973486 0.07419691 0.03564128
0000c0 9d 42 b9 3b f5 31 86 3c 20 6b 1f 3e 73 f7 d8 bd
       0.005653693 0.016381243 0.15568209 -0.10594072
0000d0 17 eb 4b 3d 39 a8 7f bd 6a 98 3c 3c ae 3a 3a 3c
       0.049784746 -0.06241629 0.011510948 0.011366529
0000e0 83 71 0d 3e 5d f7 0a 3e 9d fc b1 bd 1c 7c cf bd
       0.13812833 0.13570924 -0.0869076 -0.10131094
0000f0 1a 42 d5 bc 6f 17 8c bd aa 56 ea 3c d0 cb 30 3e
       -0.026032496 -0.06840407 0.028605778 0.17265248
000100 92 0e 7d 3e 69 95 d3 bd 90 63 8a bd c9 e3 2a bc
       0.2471259 -0.10331232 -0.06757271 -0.010430285
000110 f4 b5 1a bd ac 9b 8e 3d 5e eb cc bd f0 91 d3 bd
       -0.03777118 0.06963286 -0.1000583 -0.1033057
000120 76 d5 50 3d 8b 4f 21 bd e1 76 5d 3c 7f 0c fb 3d
       0.050984822 -0.0393825 0.0135171125 0.12258243
000130 d9 e2 0e bd 90 90 5d 3e 6c 35 d8 3d e9 68 d2 3d
       -0.034884308 0.21637177 0.105570644 0.10273916
000140 a9 31 ee bb 08 2e b9 3d ad 58 91 bd 8c 72 ad 3d
       -0.0072691035 0.09041983 -0.07096992 0.08469114
000150 ed 93 f5 3d 5b 26 03 3c 2c 21 a7 3d 07 17 8a 3d
       0.11991105 0.00800475 0.08160624 0.06742673
000160 aa ec b6 bd 54 e9 9f 3d e3 ea 4a bc b9 a8 50 3e
       -0.08931859 0.07808176 -0.012385103 0.20376863
000170 13 f8 dc bd 18 94 b9 3d 9f 41 ca bd bc b9 d7 3d
       -0.10789504 0.0906145 -0.098757975 0.10533473
000180 37 c2 e3 bc 3b 09 d9 bd 87 04 b1 bd 23 9b 2f bd
       -0.02780257 -0.10597464 -0.08643442 -0.04287256
000190 9d c3 8c 3d 81 79 a2 bd b0 07 f5 bc 69 04 00 3e
       0.06873248 -0.07933331 -0.029910892 0.12501682
0001a0 3e c9 c5 3c c6 28 a4 3d 28 30 cd 3c 7d 32 dc 3d
       0.024143811 0.080155894 0.025047377 0.107518174
0001b0 84 c4 23 3e 45 d1 ca 3c d8 b5 0e be e9 58 0b 3e
       0.15992934 0.02475799 -0.13936555 0.13608135
0001c0 b2 4e 27 3c 7a 87 34 3e 35 d8 ea 3c f8 2b 90 bd
       0.0102116335 0.17629805 0.028667549 -0.070396364
0001d0 d0 f4 03 be 7c e3 10 be bf 38 af 3b 09 fe 73 3d
       -0.12886357 -0.14149278 0.005347341 0.05956844
0001e0 9e 37 05 bc b2 74 67 3e c3 18 5f bd 97 7d 0c 3d
       -0.008130936 0.2260311 -0.054466974 0.03429946
0001f0 2d 59 c0 bd 3a a4 99 bd d1 76 25 bd 3f 60 00 3e
       -0.09392009 -0.07502027 -0.040396515 0.12536715
000200 d6 e5 16 be 53 6a 0a 3e 4e 8a 74 bc 0f f6 a1 bd
       -0.14736113 0.13517122 -0.0149255525 -0.0790826
000210 6b a5 bd 3d fd b8 08 3e 62 2d f6 bc fd b2 84 bd
       0.092600666 0.13351817 -0.030050937 -0.06479452
000220 a6 fe 27 3e 85 50 6f 3d 26 bf d3 bd eb eb ac bd
       0.16405734 0.0584264 -0.10339193 -0.08443435
000230 e5 4d fb 3d e1 1e 22 bd 96 1a a2 bd 50 a4 30 be
       0.122707166 -0.03958023 -0.07915227 -0.1725018
000240 21 a3 09 3b 4d 14 37 3e 91 a0 d9 3a a4 fa 0a 3e
       0.0021001773 0.17878838 0.0016603639 0.13572174
000250 45 b2 2f bd 16 e5 37 3e 77 d0 93 bc d6 51 09 bc
       -0.04289462 0.17958483 -0.01804374 -0.008381328
000260 e1 4e 11 bd 62 1d 1a 3e 18 1c 29 3e 1e e9 2c be
       -0.035475615 0.15050271 0.16514623 -0.16885802
000270 af af 1a 3e 77 e2 3f be 6c 36 ae bd 1d 73 08 be
       0.1510608 -0.18738733 -0.08506474 -0.13325162
000280 0f e5 0d 3e 82 8f 28 3d 25 8a bf bd 7f d4 1d 3e
       0.1385691 0.041152485 -0.09352521 0.15413092
000290 0a 24 36 3e 73 fb 23 3e d9 39 89 3b b4 9e 8e bd
       0.17787185 0.16013889 0.004187804 -0.06963864
0002a0 20 7d 19 bd 96 a2 b6 3d dd 52 2a 3c 5f 99 1e bc
       -0.037472844 0.089177296 0.010395733 -0.009680121
0002b0 90 a6 8d 3d 52 07 6e bd b0 63 99 3d 15 62 b6 bd
       0.06916535 -0.05811245 0.07489717 -0.089054264
0002c0 1d 31 54 bd 31 9c a2 bd 53 2f 2b be 92 94 d2 bd
       -0.05180465 -0.079399474 -0.16717272 -0.10282244
0002d0 a6 a1 40 be 1d ef b5 bd 08 e0 2c 39 20 49 bc bd
       -0.18811664 -0.08883498 0.00016486656 -0.09193635
0002e0 09 d3 a3 3c b0 ac bc bc e9 51 32 bd 7a 93 01 3e
       0.01999809 -0.023031563 -0.043535147 0.12653914
0002f0 cb 79 57 bc d1 01 d4 3d 36 3e af bd 1e cc 03 be
       -0.013151596 0.10351909 -0.08556788 -0.12870833
000300 65 f4 90 39 79 58 a6 bd 1d 41 a6 3d 43 0a 03 3d
       0.00027647908 -0.081223436 0.08117888 0.03199221
000310 40 f1 61 bb 83 31 b5 bd 39 59 43 3c a4 c1 65 3d
       -0.0034476072 -0.08847334 0.011923128 0.056092873
000320 7a 3c 85 bd f0 5e 6b 3d 7a c0 00 3b aa 04 fd 3b
       -0.065056756 0.057463586 0.0019645975 0.0077215033
000330 db 10 5b bd 3e 48 b9 3d 33 67 99 3c ef 3b 26 3e
       -0.05348287 0.09046982 0.018725967 0.162338
000340 c3 5c ba 3d a6 f4 f4 bd 10 58 16 bc 74 d3 d4 3c
       0.09099724 -0.119607255 -0.009176269 0.025979735
000350 d3 de e7 bc cc d4 c0 bd 6b 50 e7 3d fb 6b 36 3e
       -0.028304493 -0.09415588 0.112946354 0.17814629
000360 aa 12 53 3c 1c cc 60 be f3 7c ed bd 48 41 3f 3e
       0.012882868 -0.21952862 -0.11596098 0.18677247
000370 70 74 ca 3d 93 79 8b 3d d3 f8 64 bd 50 a2 02 bd
       0.0988549 0.06810298 -0.05590136 -0.031893075
000380 54 b7 7f 3d c9 c1 b7 bd d3 58 d8 3c 96 fd 95 bd
       0.062430695 -0.089725085 0.026409542 -0.07323758
000390 97 ca 23 3d af 12 4c bd b2 a9 2f 3d 70 7c 22 be
       0.039988127 -0.049822506 0.042886443 -0.15867782
0003a0 2e 8a da 3d 21 eb eb 3c ca fe d2 bd 71 2b 97 3d
       0.10670887 0.028798642 -0.103025034 0.07381333
0003b0 68 3f ad 3c 68 49 35 bd ce 0c 57 bd 45 7c dc bc
       0.021148399 -0.04425946 -0.052502446 -0.026914725
0003c0 d0 10 00 3e f1 4c 43 3d 64 28 16 3e 05 82 ec 3d
       0.12506413 0.0476808 0.14663845 0.11548237
0003d0 92 54 24 be 1f 0f 9c bc 44 69 0d bd 23 5e a1 bd
       -0.16047886 -0.019050179 -0.034524217 -0.07879283
0003e0 5f 00 11 3d c9 37 84 3e 17 bf c6 bd fc e3 26 bc
       0.035400745 0.2582381 -0.09704416 -0.010186192
0003f0 b2 f4 c0 3d 62 a4 12 bd 12 73 90 3d fa 1b 13 bd
       0.09421672 -0.0358013 0.07053198 -0.035915352

features.8.key.bias f4 [8]
000000 da cc 6b 3c 17 81 91 3d 66 72 d4 3d c5 23 0b 3d
       0.014392102 0.071047 0.10373382 0.03396966
000010 31 2b d7 bd d7 ac c1 3d 1a 67 9f bd 06 5b f9 bd
       -0.10506285 0.09456795 -0.07783337 -0.121755645

features.8.value.weight f4 [64, 64, 1, 1]
000000 e3 b8 b8 3e ee 45 bb bb 4e cc 47 be b6 4d f2 3d
       0.36078557 -0.0057151234 -0.1951153 0.118312284
000010 eb e3 10 3d 60 1c 42 3e cd fd 3f be 8b d8 2e be
       0.03537361 0.18956137 -0.18749161 -0.17074792
000020 ee 06 a5 3e 94 36 27 3e 07 27 5c 3d 51 75 f3 3d
       0.3223185 0.16329414 0.053748157 0.11887611
000030 fb bd 18 be e4 f4 e3 3d 33 49 d0 bc 87 1b 7d 3e
       -0.14916222 0.111306936 -0.02542553 0.24717532
000040 ae b0 06 3e cc 86 0a be 93 70 89 3e 81 b1 66 3d
       0.13153335 -0.13527983 0.268437 0.056321625
000050 9a ba 70 3e e2 f7 04 3e b6 a4 0c 3e c1 cf 7a 3e
       0.23508683 0.12985185 0.13734707 0.24493314
000060 52 57 23 3e 93 0c c5 bc c7 2c 0f be c7 f6 eb 3d
       0.15951279 -0.024053847 -0.13981925 0.115216784
000070 8c 4e b9 bd 32 02 57 bd bc 76 42 be 76 b9 12 3e
       -0.09048185 -0.052492328 -0.18990606 0.1432856
000080 2e a8 86 3e 97 db 48 be dc f3 13 3d 98 03 80 be
       0.26300186 -0.19615017 0.036121234 -0.25002742
000090 26 86 8f bd 27 cc f8 bb 82 49 04 3e db 82 91 bc
       -0.07008009 -0.007592696 0.12918666 -0.017762592
0000a0 5b 13 00 be c4 4f 2b be f3 0b e3 3d 88 ef 0f be
       -0.12507384 -0.16729647 0.110862635 -0.14056218
0000b0 69 03 9f 3d 0d ad 8c 3c 70 ff 18 be a9 ba c9 3c
       0.07764322 0.01717236 -0.14941192 0.02462514
0000c0 bf e5 40 3d 2e 67 4f be ca de 30 3e df 95 49 3d
       0.047094103 -0.20254204 0.17272487 0.049215194
0000d0 52 52 0c 3e 5e 60 a4 b8 7a 1c 0a bd 2b e9 5d 3e
       0.13703278 -7.838079e-05 -0.033718564 0.21670978
0000e0 91 5b 3b 3c 58 cf 7f bd 9c 6b 0e 3e f4 88 0c 3e
       0.011435405 -0.062453598 0.13908237 0.13724118
0000f0 f9 f2 f6 3d 09 c0 2f 3e 92 cb 42 bc 0d 4f 5d 3e
       0.12058062 0.171631 -0.011889355 0.21612187
000100 78 c5 7d 3d 3a c9 15 3e 35 48 3e be 4f c1 bc bc
       0.0619559 0.14627543 -0.18582232 -0.023041395
000110 09 64 ff 3d f6 6a c8 3d 7a a2 08 bd 19 11 2f bd
       0.12470252 0.09786026 -0.033358075 -0.042740915
000120 d1 ec c2 3c 19 e4 48 3e 44 4f bd bd e4 58 47 3e
       0.023794563 0.19618262 -0.09243634 0.19467503
000130 cd 86 c3 bd f2 eb 21 3e 36 2b a1 ba 9f 90 0c 3e
       -0.095471956 0.15812662 -0.0012296203 0.13727044
000140 a4 08 2d 3d 1b c1 0f be c9 96 f1 3d 80 f7 e9 3b
       0.04224457 -0.14038508 0.11796338 0.0071401
000150 f4 e0 4f 3e 79 a4 5e 3e cf 3b c5 bb 8f d4 de 3d
       0.20300657 0.21742429 -0.0060190926 0.10880386
000160 24 ee 66 3e de d5 cc 3d b4 d8 8d bd 43 b4 02 3e
       0.22551781 0.100017294 -0.069260985 0.12764077
000170 61 06 8c bd 7e bb 36 be 51 88 0d be d8 e2 f6 3d
       -0.06837154 -0.1784496 -0.13821532 0.12054986
000180 3a ba 30 3e 10 b7 00 be 85 9c 8f 3d f0 24 f4 bd
       0.1725854 -0.12569833 0.070122756 -0.11921108
000190 ef 52 9e bd 31 3d d0 3c a8 5a e2 3d 2e 9c d7 bd
       -0.07730662 0.025419803 0.110524476 -0.10527836
0001a0 80 1e 92 be dc d0 17 be 46 63 d0 3d ad 72 7e be
       -0.28538895 -0.14825767 0.10175185 -0.24848433
0001b0 3f d4 01 3e 51 f7 1b 3e 50 d4 ab be e3 46 01 be
       0.12678622 0.15231062 -0.3356042 -0.12624697
0001c0 ad 3b f3 3c 23 46 00 be 31 78 65 3d f5 75 f8 bc
       0.029691542 -0.12526755 0.056022827 -0.030329684
0001d0 5c 7a cc 3c d4 47 60 3d 25 62 2f be 13 31 c3 3d
       0.02496069 0.054756 -0.17127283 0.095308445
0001e0 84 db a3 bc 5f 63 9d 3d 2b 68 ec 3d fd 61 3b 3e
       -0.020002134 0.07684969 0.11543306 0.18299098
0001f0 a6 f3 89 3c dd 39 dc 3d 48 de 64 3c d4 e6 32 3e
       0.016839813 0.10753224 0.013969012 0.17470866
000200 61 fe 0b be e8 64 7f bb 41 71 ab 3d 41 b6 b6 bd
       -0.13671257 -0.0038970057 0.08371211 -0.08921481
000210 2b c5 0b be db 76 fa bc e4 18 44 3e b2 eb 5c 3e
       -0.13649432 -0.030574253 0.1915012 0.21574286
000220 f7 65 25 be e9 4c 9a 3c 76 dc a6 3d 59 95 b8 bc
       -0.16152178 0.018835502 0.08147518 -0.022532152
000230 3d cb 52 3d bc 68 5e be 70 6e 23 be 4c 66 b0 be
       0.051463354 -0.2171964 -0.15960097 -0.34453046
000240 53 93 86 bd 2b d1 5f 3d 3b 95 5d be 9e 95 17 3d
       -0.065710686 0.054642837 -0.21638958 0.03700792
000250 37 ee ff bd e6 98 8c 3d 66 d2 87 3b d3 3c fd bc
       -0.12496608 0.068651006 0.0041449545 -0.030912792
000260 36 e7 5e bd e3 34 b6 bd a7 07 a3 3c ea 96 bf be
       -0.05441972 -0.08896806 0.01990111 -0.37419826
000270 21 2a 69 3d 04 b8 de 3d 82 e5 0c 3e 66 bb b5 bd
       0.056924943 0.10874942 0.13759425 -0.08873634
000280 9b b5 1e bd f0 04 e2 bc 0d e3 05 be 68 fe 6e 3e
       -0.03874741 -0.027590245 -0.13074894 0.23339236
000290 c0 87 ae 3e 00 bd 5f 3e 01 08 b2 bd 0d 0c fb 3d
       0.34087944 0.21849442 -0.08692933 0.12258158
0002a0 d4 ed 82 3e 71 2e d4 3d c5 d5 29 be ea 57 8f 3d
       0.25572073 0.103604205 -0.16585453 0.0699919
0002b0 61 11 61 bd 03 d6 c7 be 69 85 82 3e 44 ef a7 bc
       -0.054948214 -0.39030465 0.2549241 -0.020499833
0002c0 95 c3 0b 3d bc 03 3d 3c 75 d3 8e be 96 ce 11 3d
       0.03412207 0.011536535 -0.27895704 0.035597406
0002d0 f5 2e 3e be 54 78 16 bd 57 ef 13 3e f1 ae 9e be
       -0.185726 -0.036735848 0.1444677 -0.30992845
0002e0 e8 e3 bf bd 73 76 27 be b0 81 c9 bb b1 81 68 be
       -0.093696415 -0.16353779 -0.006149493 -0.22705723
0002f0 64 c6 c5 3d 26 0f 9d bc 9c 69 4d 3e 31 9c 41 be
       0.09656981 -0.019172262 0.20059818 -0.18907239
000300 a1 a0 0b be e2 7a 45 3d d2 84 df bc 38 93 80 3d
       -0.13635494 0.048212893 -0.027285013 0.0627808
000310 09 d2 6a 3b b8 25 bf bd fb 94 15 3e db 37 01 3e
       0.0035830757 -0.09333366 0.14607613 0.12618963
000320 d7 33 8a bd 1a ff 20 3d 89 63 d1 3c fb 11 25 bd
       -0.06748169 0.039305784 0.025560157 -0.04030035
000330 cd 1f 46 3d cf 43 49 3c 41 54 82 3e 43 4d 55 bd
       0.04837017 0.012284233 0.25454906 -0.052075636
000340 bc 62 87 bd c2 d7 92 3d 97 33 97 3c 68 1c 72 bd
       -0.06610629 0.07170059 0.018457217 -0.05910912
000350 f6 5e 38 3e cb 79 49 be 8d d7 50 be d2 70 89 bc
       0.18004975 -0.19675367 -0.20394726 -0.01677743
000360 c0 60 02 be 06 26 c5 bd 46 72 e8 3c 16 8e 25 3d
       -0.1273222 -0.09626393 0.028374802 0.040418707
000370 4b a3 08 3e 9b c1 a2 3d 64 db 13 3e 19 d7 38 be
       0.13343541 0.079470836 0.1443916 -0.18050803
000380 22 6d b0 bc 1d 7c 72 3d e8 7b a1 bc 33 aa 05 3e
       -0.021536414 0.059200395 -0.019712403 0.13053207
000390 3d a3 63 3d 20 47 c6 3d 7b 51 c4 bd 71 e2 0e 3e
       0.055575598 0.09681535 -0.09585854 0.13953568
0003a0 e7 5c c8 bd 2a 50 65 3e ab 62 37 3c 92 a1 5e bc
       -0.09783345 0.22393861 0.011192958 -0.013588326
0003b0 f9 ae e8 bd 4f d9 53 3c 47 89 14 3d c2 5d b1 bd
       -0.113614984 0.012930228 0.03626373 -0.08660461
0003c0 0e 77 2a be 5b 75 08 3c c9 44 90 bd 2e 96 a5 3d
       -0.16646978 0.008328761 -0.0704437 0.08085285
0003d0 28 29 2c 3d 59 b6 e1 bd 4c b2 3c 3d e5 d6 40 bd
       0.042031437 -0.11021108 0.046068475 -0.04707994
0003e0 27 3a 98 bc 7b ed f8 bc 8d 0a 47 be 9d fa a5 3c
       -0.018582417 -0.030386677 -0.19437619 0.020261103
0003f0 94 d2 23 be 3d 72 93 bd 5e 62 0e bc 91 b9 fc bc
       -0.15998298 -0.071995236 -0.008690445 -0.030850204
